{
    "model_name": "ResNetAttention",
    "num_params": 2824486,
    "input_size": [
        3,
        140,
        140
    ],
    "output_size": 4,
    "architecture": "ResNet + CBAM\u6ce8\u610f\u529b\u673a\u5236",
    "layers": "ResNetAttention(\n  (conv1): Conv2d(3, 64, kernel_size=(7, 7), stride=(2, 2), padding=(3, 3), bias=False)\n  (bn1): BatchNorm2d(64, eps=1e-05, momentum=0.1, affine=True, track_running_stats=True)\n  (maxpool): MaxPool2d(kernel_size=3, stride=2, padding=1, dilation=1, ceil_mode=False)\n  (layer1): Sequential(\n    (0): ResidualBlock(\n      (conv1): Conv2d(64, 64, kernel_size=(3, 3), stride=(1, 1), padding=(1, 1), bias=False)\n      (bn1): BatchNorm2d(64, eps=1e-05, momentum=0.1, affine=True, track_running_stats=True)\n      (conv2): Conv2d(64, 64, kernel_size=(3, 3), stride=(1, 1), padding=(1, 1), bias=False)\n      (bn2): BatchNorm2d(64, eps=1e-05, momentum=0.1, affine=True, track_running_stats=True)\n      (shortcut): Sequential()\n    )\n    (1): ResidualBlock(\n      (conv1): Conv2d(64, 64, kernel_size=(3, 3), stride=(1, 1), padding=(1, 1), bias=False)\n      (bn1): BatchNorm2d(64, eps=1e-05, momentum=0.1, affine=True, track_running_stats=True)\n      (conv2): Conv2d(64, 64, kernel_size=(3, 3), stride=(1, 1), padding=(1, 1), bias=False)\n      (bn2): BatchNorm2d(64, eps=1e-05, momentum=0.1, affine=True, track_running_stats=True)\n      (shortcut): Sequential()\n    )\n  )\n  (layer2): Sequential(\n    (0): ResidualBlock(\n      (conv1): Conv2d(64, 128, kernel_size=(3, 3), stride=(2, 2), padding=(1, 1), bias=False)\n      (bn1): BatchNorm2d(128, eps=1e-05, momentum=0.1, affine=True, track_running_stats=True)\n      (conv2): Conv2d(128, 128, kernel_size=(3, 3), stride=(1, 1), padding=(1, 1), bias=False)\n      (bn2): BatchNorm2d(128, eps=1e-05, momentum=0.1, affine=True, track_running_stats=True)\n      (shortcut): Sequential(\n        (0): Conv2d(64, 128, kernel_size=(1, 1), stride=(2, 2), bias=False)\n        (1): BatchNorm2d(128, eps=1e-05, momentum=0.1, affine=True, track_running_stats=True)\n      )\n    )\n    (1): ResidualBlock(\n      (conv1): Conv2d(128, 128, kernel_size=(3, 3), stride=(1, 1), padding=(1, 1), bias=False)\n      (bn1): BatchNorm2d(128, eps=1e-05, momentum=0.1, affine=True, track_running_stats=True)\n      (conv2): Conv2d(128, 128, kernel_size=(3, 3), stride=(1, 1), padding=(1, 1), bias=False)\n      (bn2): BatchNorm2d(128, eps=1e-05, momentum=0.1, affine=True, track_running_stats=True)\n      (shortcut): Sequential()\n    )\n  )\n  (layer3): Sequential(\n    (0): ResidualBlock(\n      (conv1): Conv2d(128, 256, kernel_size=(3, 3), stride=(2, 2), padding=(1, 1), bias=False)\n      (bn1): BatchNorm2d(256, eps=1e-05, momentum=0.1, affine=True, track_running_stats=True)\n      (conv2): Conv2d(256, 256, kernel_size=(3, 3), stride=(1, 1), padding=(1, 1), bias=False)\n      (bn2): BatchNorm2d(256, eps=1e-05, momentum=0.1, affine=True, track_running_stats=True)\n      (shortcut): Sequential(\n        (0): Conv2d(128, 256, kernel_size=(1, 1), stride=(2, 2), bias=False)\n        (1): BatchNorm2d(256, eps=1e-05, momentum=0.1, affine=True, track_running_stats=True)\n      )\n    )\n    (1): ResidualBlock(\n      (conv1): Conv2d(256, 256, kernel_size=(3, 3), stride=(1, 1), padding=(1, 1), bias=False)\n      (bn1): BatchNorm2d(256, eps=1e-05, momentum=0.1, affine=True, track_running_stats=True)\n      (conv2): Conv2d(256, 256, kernel_size=(3, 3), stride=(1, 1), padding=(1, 1), bias=False)\n      (bn2): BatchNorm2d(256, eps=1e-05, momentum=0.1, affine=True, track_running_stats=True)\n      (shortcut): Sequential()\n    )\n  )\n  (cbam): CBAM(\n    (channel_attention): ChannelAttention(\n      (avg_pool): AdaptiveAvgPool2d(output_size=1)\n      (max_pool): AdaptiveMaxPool2d(output_size=1)\n      (fc): Sequential(\n        (0): Conv2d(256, 16, kernel_size=(1, 1), stride=(1, 1), bias=False)\n        (1): ReLU()\n        (2): Conv2d(16, 256, kernel_size=(1, 1), stride=(1, 1), bias=False)\n      )\n      (sigmoid): Sigmoid()\n    )\n    (spatial_attention): SpatialAttention(\n      (conv): Conv2d(2, 1, kernel_size=(7, 7), stride=(1, 1), padding=(3, 3), bias=False)\n      (sigmoid): Sigmoid()\n    )\n  )\n  (avgpool): AdaptiveAvgPool2d(output_size=(1, 1))\n  (fc): Sequential(\n    (0): Linear(in_features=256, out_features=128, bias=True)\n    (1): ReLU()\n    (2): Dropout(p=0.5, inplace=False)\n    (3): Linear(in_features=128, out_features=4, bias=True)\n  )\n)"
}